#map0 = affine_map<(d0) -> (d0)>
#map1 = affine_map<(d0) -> ()>
#map2 = affine_map<(d0, d1, d2) -> (d0, 0, d2)>
#map3 = affine_map<(d0, d1, d2) -> (0, d1, d2)>
#map4 = affine_map<(d0, d1, d2) -> (d0, d1, d2)>
module attributes {torch.debug_module_name = "DefaultAnchorGenerator"} {
  func.func @forward(%arg0: tensor<1x256x16x20xf32>) -> tensor<4800x4xf32> {
    %c1_i64 = arith.constant 1 : i64
    %cst = arith.constant 2.000000e+00 : f64
    %c0_i64 = arith.constant 0 : i64
    %cst_0 = arith.constant dense<4.000000e+01> : tensor<f64>
    %cst_1 = arith.constant dense<2.000000e+00> : tensor<f64>
    %cst_2 = arith.constant dense<1.000000e+00> : tensor<f64>
    %cst_3 = arith.constant dense<[[… > : tensor<15x4xf32>
    %0 = arith.sitofp %c0_i64 : i64 to f32
    %1 = arith.truncf %cst : f64 to f32
    %2 = linalg.init_tensor [320] : tensor<320xf32>
    %3 = linalg.generic {indexing_maps = [#map0], iterator_types = ["parallel"]} outs(%2 : tensor<320xf32>) {
    ^bb0(%arg1: f32):
      %26 = linalg.index 0 : index
      %27 = arith.index_cast %26 : index to i64
      %28 = arith.sitofp %27 : i64 to f32
      %29 = arith.mulf %1, %28 : f32
      %30 = arith.addf %0, %29 : f32
      linalg.yield %30 : f32
    } -> tensor<320xf32>
    %4 = linalg.generic {indexing_maps = [#map0, #map1, #map0], iterator_types = ["parallel"]} ins(%3, %cst_0 : tensor<320xf32>, tensor<f64>) outs(%2 : tensor<320xf32>) {
    ^bb0(%arg1: f32, %arg2: f64, %arg3: f32):
      %26 = arith.truncf %arg2 : f64 to f32
      %27 = arith.divf %arg1, %26 : f32
      linalg.yield %27 : f32
    } -> tensor<320xf32>
    %5 = linalg.generic {indexing_maps = [#map0, #map0], iterator_types = ["parallel"]} ins(%4 : tensor<320xf32>) outs(%2 : tensor<320xf32>) {
    ^bb0(%arg1: f32, %arg2: f32):
      %26 = math.floor %arg1 : f32
      linalg.yield %26 : f32
    } -> tensor<320xf32>
    %6 = linalg.generic {indexing_maps = [#map0, #map1, #map0], iterator_types = ["parallel"]} ins(%5, %cst_0 : tensor<320xf32>, tensor<f64>) outs(%2 : tensor<320xf32>) {
    ^bb0(%arg1: f32, %arg2: f64, %arg3: f32):
      %26 = arith.truncf %arg2 : f64 to f32
      %27 = arith.mulf %arg1, %26 : f32
      linalg.yield %27 : f32
    } -> tensor<320xf32>
    %7 = linalg.generic {indexing_maps = [#map0, #map0, #map0], iterator_types = ["parallel"]} ins(%3, %6 : tensor<320xf32>, tensor<320xf32>) outs(%2 : tensor<320xf32>) {
    ^bb0(%arg1: f32, %arg2: f32, %arg3: f32):
      %26 = arith.sitofp %c1_i64 : i64 to f32
      %27 = arith.mulf %arg2, %26 : f32
      %28 = arith.subf %arg1, %27 : f32
      linalg.yield %28 : f32
    } -> tensor<320xf32>
    %8 = linalg.generic {indexing_maps = [#map0, #map1, #map0], iterator_types = ["parallel"]} ins(%7, %cst_2 : tensor<320xf32>, tensor<f64>) outs(%2 : tensor<320xf32>) {
    ^bb0(%arg1: f32, %arg2: f64, %arg3: f32):
      %26 = arith.truncf %arg2 : f64 to f32
      %27 = arith.sitofp %c1_i64 : i64 to f32
      %28 = arith.mulf %26, %27 : f32
      %29 = arith.addf %arg1, %28 : f32
      linalg.yield %29 : f32
    } -> tensor<320xf32>
    %9 = linalg.generic {indexing_maps = [#map0], iterator_types = ["parallel"]} outs(%2 : tensor<320xf32>) {
    ^bb0(%arg1: f32):
      %26 = linalg.index 0 : index
      %27 = arith.index_cast %26 : index to i64
      %28 = arith.sitofp %27 : i64 to f32
      %29 = arith.mulf %1, %28 : f32
      %30 = arith.addf %0, %29 : f32
      linalg.yield %30 : f32
    } -> tensor<320xf32>
    %10 = linalg.generic {indexing_maps = [#map0, #map1, #map0], iterator_types = ["parallel"]} ins(%9, %cst_0 : tensor<320xf32>, tensor<f64>) outs(%2 : tensor<320xf32>) {
    ^bb0(%arg1: f32, %arg2: f64, %arg3: f32):
      %26 = arith.truncf %arg2 : f64 to f32
      %27 = arith.divf %arg1, %26 : f32
      linalg.yield %27 : f32
    } -> tensor<320xf32>
    %11 = linalg.generic {indexing_maps = [#map0, #map0], iterator_types = ["parallel"]} ins(%10 : tensor<320xf32>) outs(%2 : tensor<320xf32>) {
    ^bb0(%arg1: f32, %arg2: f32):
      %26 = math.floor %arg1 : f32
      linalg.yield %26 : f32
    } -> tensor<320xf32>
    %12 = linalg.generic {indexing_maps = [#map0, #map1, #map0], iterator_types = ["parallel"]} ins(%11, %cst_1 : tensor<320xf32>, tensor<f64>) outs(%2 : tensor<320xf32>) {
    ^bb0(%arg1: f32, %arg2: f64, %arg3: f32):
      %26 = arith.truncf %arg2 : f64 to f32
      %27 = arith.mulf %arg1, %26 : f32
      linalg.yield %27 : f32
    } -> tensor<320xf32>
    %13 = linalg.generic {indexing_maps = [#map0, #map1, #map0], iterator_types = ["parallel"]} ins(%12, %cst_2 : tensor<320xf32>, tensor<f64>) outs(%2 : tensor<320xf32>) {
    ^bb0(%arg1: f32, %arg2: f64, %arg3: f32):
      %26 = arith.truncf %arg2 : f64 to f32
      %27 = arith.sitofp %c1_i64 : i64 to f32
      %28 = arith.mulf %26, %27 : f32
      %29 = arith.addf %arg1, %28 : f32
      linalg.yield %29 : f32
    } -> tensor<320xf32>
    %14 = tensor.expand_shape %8 [[0, 1]] : tensor<320xf32> into tensor<320x1xf32>
    %15 = tensor.expand_shape %13 [[0, 1]] : tensor<320xf32> into tensor<320x1xf32>
    %16 = linalg.init_tensor [320, 4] : tensor<320x4xf32>
    %17 = tensor.insert_slice %14 into %16[0, 0] [320, 1] [1, 1] : tensor<320x1xf32> into tensor<320x4xf32>
    %18 = tensor.insert_slice %15 into %17[0, 1] [320, 1] [1, 1] : tensor<320x1xf32> into tensor<320x4xf32>
    %19 = tensor.insert_slice %14 into %18[0, 2] [320, 1] [1, 1] : tensor<320x1xf32> into tensor<320x4xf32>
    %20 = tensor.insert_slice %15 into %19[0, 3] [320, 1] [1, 1] : tensor<320x1xf32> into tensor<320x4xf32>
    %21 = tensor.expand_shape %20 [[0], [1, 2]] : tensor<320x4xf32> into tensor<320x1x4xf32>
    %22 = tensor.expand_shape %cst_3 [[0, 1], [2]] : tensor<15x4xf32> into tensor<1x15x4xf32>
    %23 = linalg.init_tensor [320, 15, 4] : tensor<320x15x4xf32>
    %24 = linalg.generic {indexing_maps = [#map2, #map3, #map4], iterator_types = ["parallel", "parallel", "parallel"]} ins(%21, %22 : tensor<320x1x4xf32>, tensor<1x15x4xf32>) outs(%23 : tensor<320x15x4xf32>) {
    ^bb0(%arg1: f32, %arg2: f32, %arg3: f32):
      %26 = arith.sitofp %c1_i64 : i64 to f32
      %27 = arith.mulf %arg2, %26 : f32
      %28 = arith.addf %arg1, %27 : f32
      linalg.yield %28 : f32
    } -> tensor<320x15x4xf32>
    %25 = tensor.collapse_shape %24 [[0, 1], [2]] : tensor<320x15x4xf32> into tensor<4800x4xf32>
    return %25 : tensor<4800x4xf32>
  }
}
