module attributes {torch.debug_module_name = "Conv2d"} {
  func.func @forward(%arg0: tensor<3x3x32x32xf32>) -> tensor<3x3x30x30xf32> {
    %0 = "tosa.const"() {value = dense<[[[[… > : tensor<3x3x3x3xf32>} : () -> tensor<3x3x3x3xf32>
    %1 = "tosa.const"() {value = dense<[0.0183118079, 0.0520551465, -0.178210557]> : tensor<3xf32>} : () -> tensor<3xf32>
    %2 = "tosa.const"() {value = dense<[0, 2, 3, 1]> : tensor<4xi32>} : () -> tensor<4xi32>
    %3 = "tosa.const"() {value = dense<[0, 3, 1, 2]> : tensor<4xi32>} : () -> tensor<4xi32>
    %4 = "tosa.transpose"(%arg0, %2) : (tensor<3x3x32x32xf32>, tensor<4xi32>) -> tensor<3x32x32x3xf32>
    %5 = "tosa.conv2d"(%4, %0, %1) {dilation = [1, 1], pad = [0, 0, 0, 0], stride = [1, 1]} : (tensor<3x32x32x3xf32>, tensor<3x3x3x3xf32>, tensor<3xf32>) -> tensor<3x30x30x3xf32>
    %6 = "tosa.transpose"(%5, %3) : (tensor<3x30x30x3xf32>, tensor<4xi32>) -> tensor<3x3x30x30xf32>
    return %6 : tensor<3x3x30x30xf32>
  }
}
